posts/Final Project/final_cfb_model.pt (torch, 62160 bytes, 16 tensors)

network.0.weight f4 [128, 21]
00000000: 16da 8cbd d2af d8be 0d3d 27bd 16ea a0bd
00000010: 4577 683d 8f93 523e 151c 86be 4b90 c0bd
00000020: fc21 04be 6713 1a3d 8042 b53d 0b9a 27be
00000030: 4635 583e 75f2 a9bd 79a9 7e3d 1241 513e
00000040: d52a 143e 6368 15be bb84 d0be a288 963d
00000050: e0de a53e d630 0b3d fdbe 8e3a 24d6 363d
00000060: 31ef 103e b810 89bd f668 b6bd 20e4 9e3e
00000070: 6eea 213e 1697 8e3d 1eb3 803e 2382 78be
00000080: a0f4 783e afe2 ab3d af2f 2c3a 735d a3bd
00000090: 697f 14bd 0cc6 643e f785 9cbe 1b49 a23e
000000a0: dd9a 52bd 9b04 933d 9045 b43e 4206 cf3d
000000b0: dae4 9d3e eb23 40bc 1d5c 063e f13b d33d
000000c0: 6b32 e03d 132b 3a3d a8fc 4fbe 8a48 643e
000000d0: b230 66bd aea8 923c 1523 81bd 16d5 a2b8
000000e0: 4d84 033e 816b c2be d374 3e3e fa91 75be
000000f0: d22b 9bbc c09f 56be c604 073d 4d5c 793d
00000100: a79a e03d 5352 8e3e 19c0 fd3d bdb3 103e
00000110: 3325 d0ba d49f 623d 78bc 103e e37e 31bd
00000120: e281 9b3d f8a1 383e 4da8 ca3d 1956 003e
00000130: bfb1 103e 0e34 db3d ebaf 36be d22b 8cbd
00000140: bb4d 81be c7d1 9bbe c7f5 a5be 64c1 8f3e
00000150: e00f 073e 032a 323e ff00 803e 3cf8 0b3e
00000160: f1f5 86bd 2ddc 1b3d cbc6 d53d 35b4 93be
00000170: d898 a03b 959e fdbb 258d 63be c684 53be
00000180: e56c 3b3c c82b 83be 908b 973e 0979 87be
00000190: cdba e73e 2885 a73c f8be ee3d 5b71 39be
000001a0: 79bd 02be be18 bdbe 83d7 383d 924b fb3d
000001b0: c760 1bbe 19ea 2cbc c281 693d 1972 48be
000001c0: 32b6 7abd 8694 90be ea2f 75be a49a 9fbd
000001d0: a16a 33bd 25e9 f03d 4f7c b0be dd53 0abe
000001e0: 767f 083e f76f 53bc 3ec0 fc3b 2bf9 68bd
000001f0: 4fa5 bebe d95b 5a3e 69cc 81bd 919c 3d3e
00000200: fdc4 373e 638f 193d 5bba 8a3e 4169 2dbe
00000210: dec8 38be d89e 81bd 8d07 7dbe 77f4 6e3c
00000220: a1ea afbd 5b3d 6a3d 734b f83e 79a7 373e
00000230: 5773 2fbd b7e2 8cbc ae19 81bd 3bad 2c3d
00000240: d01f a23d ce1f bfbe c85f 5cbe baeb b53d
00000250: b32e 7fbd b49d 9d3c 64a6 0cbd 618d 1abe
00000260: c219 ce3c c23b 1f3e d0b1 3d3c b139 c2bc
00000270: 3c04 0ebe fcb9 9d3d 3c3c 703d 6412 873e
00000280: 1b38 42bd a6c8 93be b0e2 2e3e 23b4 b03e
00000290: cecd 60be f0bb a93e 1917 14be 938f fcbe
000002a0: 3498 15bb a249 0c3d 16fd 373e 6ca7 d13c
000002b0: 60a7 62bd f108 a83d 5ed3 6e3c d857 e9bc
000002c0: 86bb 733e 78d3 a1be babb 71be d265 a3be
000002d0: 7f5d 1bbe 0057 19be 828d 8cbd 7352 16be
000002e0: 6dfb b43e 38b7 66bd 6dba 79bd a027 1ebb
000002f0: 44a9 b33e c1ea 1ebd 1add 413d 24aa 05bc
00000300: 7c94 1abc 39c6 39be 19d1 0dbe e530 a23d
00000310: e807 a23d e54f 9e3e de2b 3fbe 5e29 1bbd
00000320: ab53 77be 842c 2b3e 7456 643e 7c74 153e
00000330: 6629 ad3d c94c fbbe 5ab8 b8bb 56ee 0cbe
00000340: a7c7 88be 2578 c33c 7416 4c3e fc09 d7bd
00000350: 9266 4e3e bfc8 10be 53d1 5b3d 62ab 0c3e
00000360: b75c 4d3e a650 e43d ae6f 873d 5585 8fbe
00000370: f70f f8bd f407 7fbe f22c e0bd 3d5b 5b3d
00000380: 7431 d73d 43a5 93bd 36ac af3d e18e 923d
00000390: cb61 bc3d f835 fb3e 5d5a 17be 22bd bbbd
000003a0: b4b6 053f c29a a73e 5b29 1dbe c77f c5bd
000003b0: e2d0 0e3e cad3 f93d 8f32 043e 087c 33be
000003c0: 0b0b 6cbc 4646 d33d eabf 713e feaa 223e
000003d0: a757 703d ca79 6c3e 9533 fbbc 7d5d 8fbd
000003e0: 5542 3f3e 79be 5abe 87e4 2abe c083 fc3d
000003f0: 9551 933e 10a1 23be 6c0d 183e e6c5 c53c
-0.06877534 -0.4232164 -0.040829707 -0.07857148 0.05675437 0.20564102 -0.261933 -0.09402522
-0.12903589 0.03761616 0.088505745 -0.16367356 0.21114072 -0.08298198 0.06217334 0.20434979
0.14469464 -0.14590602 -0.40726265 0.073502794 0.32396603 0.03398212 0.0010890659 0.044637814
0.14153744 -0.06692642 -0.089067385 0.3103342 0.15812084 0.06962411 0.25136656 -0.24268393
0.24312067 0.08392846 0.00065683847 -0.079768084 -0.03625432 0.22341174 -0.30570957 0.316964
-0.05141722 0.07178613 0.35209322 0.101086155 0.30838662 -0.0117273135 0.13121076 0.10314167
0.109471165 0.045451235 -0.20311224 0.22293296 -0.056198783 0.017902698 -0.063055195 -7.764452e-05
0.12843437 -0.37972644 0.18599252 -0.23981467 -0.018941794 -0.20959377 0.032963537 0.06087904
0.109669976 0.27797183 0.12390155 0.14131065 -0.0015880227 0.055328205 0.14134395 -0.0433339
0.075931326 0.18030536 0.09895382 0.12532844 0.14130305 0.10703288 -0.17840545 -0.068442956
-0.25254616 -0.30433485 -0.32414076 0.28077233 0.1318965 0.17398839 0.2500076 0.13668913
-0.06589878 0.038051773 0.104383074 -0.28848425 0.004901033 -0.0077398517 -0.22221811 -0.20656118
0.011439537 -0.2561934 0.29598665 -0.2645953 0.45259705 0.020449236 0.11657518 -0.18109648
-0.1276759 -0.3693294 0.045127403 0.12270273 -0.15173636 -0.01055386 0.057008512 -0.19574775
-0.06120891 -0.28238314 -0.23944059 -0.07793167 -0.04380286 0.11763219 -0.3446984 -0.13508554
0.13329872 -0.0129051125 0.0077133467 -0.05687825 -0.37235495 0.213241 -0.06337816 0.18516757
0.17946239 0.03749026 0.27095303 -0.16934682 -0.18045375 -0.06329125 -0.24709912 0.014584652
-0.08589674 0.05718742 0.48495063 0.1793498 -0.042834606 -0.01719795 -0.06303726 0.042157393
0.07916224 -0.37328953 -0.21520913 0.08882852 -0.062300395 0.019240238 -0.03433837 -0.15092994
0.025158767 0.1555014 0.011578038 -0.02370915 -0.13868803 0.07701489 0.058651194 0.26381218
-0.047416788 -0.2886402 0.17078662 0.34512433 -0.21953508 0.33151197 -0.14461936 -0.49328288
-0.0022826316 0.03424991 0.17967638 0.025592528 -0.055335402 0.082048304 0.014576761 -0.02848427
0.23802003 -0.3160665 -0.23606768 -0.3191362 -0.15172385 -0.14974594 -0.06862928 -0.1467989
0.35348073 -0.056327075 -0.060968805 -0.0024132505 0.35090077 -0.038798098 0.04733 -0.0081582405
-0.0094348155 -0.18142022 -0.13849296 0.07919482 0.07911664 0.3092033 -0.18669078 -0.037881248
-0.2415301 0.167162 0.22298604 0.14595217 0.08455162 -0.4908202 -0.005637211 -0.13762793
-0.26714823 0.023861 0.1993044 -0.10499951 0.20156315 -0.14139079 0.053666424 0.13737252
0.20054899 0.11148195 0.06613098 -0.28031412 -0.1211242 -0.24905378 -0.10946073 0.05355381
0.10507479 -0.072092555 0.085777685 0.07156158 0.0919834 0.49064612 -0.14780565 -0.091669336
0.5223191 0.32735258 -0.15347807 -0.09643512 0.1394687 0.12198599 0.12909912 -0.17527783
-0.01440693 0.10316138 0.23608366 0.15885541 0.05867734 0.23093334 -0.030664245 -0.07000253
0.18677647 -0.21361722 -0.16688739 0.12329817 0.2877318 -0.15979409 0.1484887 0.024142217

network.0.bias f4 [128]
00000000: 0552 64be c55c adbe bb69 18be 4031 94be
00000010: 36e4 c1be 1e80 9dbe c11b ddbd 1f02 923e
00000020: 9853 3cbe 15aa 52be 75fb d3be ed69 d3bd
00000030: df89 eebe d9b9 1cbe 0595 0ebe 6c5e bd3c
00000040: 5aa4 c3be f79b 6bbe c1e9 dabe 739c 9abd
00000050: c8c5 b0be 45f2 aabe 948f 34bd 44c1 e5bd
00000060: 2c8a bebe ae4e 91be 74fe 533e c6c5 45be
00000070: 9e18 7bbe 568c f23d 04c3 273e ed37 1abe
00000080: aa16 8cbe cd9e 0bbe d83c 0cbe 8bdd 9b3c
00000090: 2295 96bc 4e54 80be e52d 1b3e 166e 87be
000000a0: 0e02 aebe 9070 e73d 7c04 0ebd 9634 3fbe
000000b0: b48c 30bd 043e 51be 9d9d bb3d 1e18 5e3c
000000c0: bd22 c9be 6352 02be a168 17be 3b16 12bf
000000d0: d70e 14bd 6f74 4ebe 7b1f e0bc c11e f2be
000000e0: e7c9 fa3d 6bcc 91bd 8f9a 69be c0c2 38bd
000000f0: 5d21 5dbe 314c 7c3b 456f a8be 6bf8 92be
00000100: 5639 8bbe 4906 29bb 60e7 52be e664 c9be
00000110: 7de4 ef3c a7ce d2bd 1822 b1be 44d2 02bf
00000120: 00b5 c3be 6080 2ebd ac6c a2be 809d 50be
00000130: 8214 08be 48bb 5fbe d9d8 8bbe 098e 05be
00000140: b909 353e 3202 533d f397 a3bd 6966 32bd
00000150: 0cde 05be 6181 62be c2e8 503e e572 8a3e
00000160: d20c b6be 09e7 16be 4415 99be 0a9b 79be
00000170: a743 27be 284b 2abe b83e d4bd e7a5 3ebd
00000180: e058 3c3e af20 00be 7650 a8bd b182 a2be
00000190: a9ce 01be 54e7 57be 3b44 95bd e983 913d
000001a0: fd2c b5be b228 e3bd 6255 84be ebb3 723d
000001b0: e557 ae3d 94c5 fcbc 9595 29bd 3b28 29be
000001c0: 9adb 4dbe f2d1 d9be 77d1 d8be 197d d0bd
000001d0: cb33 343e 8c47 62be c9e2 d7be 1a83 b7be
000001e0: 3988 aabe 3519 8b3d 6ca6 3a3e ce1a 88be
000001f0: 6525 ddbe abff 74be 185d 5cbd c204 02bf
-0.22296913 -0.3385984 -0.14884083 -0.28943825 -0.37869424 -0.30761808 -0.10796309 0.28517243
-0.18391263 -0.20572694 -0.41402784 -0.10322938 -0.46589562 -0.1530527 -0.13924034 0.023116313
-0.38211328 -0.23008715 -0.42756465 -0.075493716 -0.34525895 -0.33387962 -0.04408224 -0.11218503
-0.37214792 -0.2838034 0.20702535 -0.19313726 -0.2452111 0.11843173 0.16382986 -0.15060396
-0.2736104 -0.13634796 -0.13695085 0.019026538 -0.018381659 -0.2506432 0.15154226 -0.26451176
-0.33985943 0.113007665 -0.034672245 -0.18672404 -0.043102935 -0.20433813 0.09160922 0.013555555
-0.39284316 -0.1272674 -0.14786007 -0.5706517 -0.036146965 -0.20161603 -0.027358761 -0.47289088
0.12245541 -0.07119068 -0.22812866 -0.045107603 -0.21594758 0.0038497562 -0.32897392 -0.28705153
-0.2719218 -0.00257911 -0.20596075 -0.39334792 0.029283756 -0.10293322 -0.34596324 -0.5110209
-0.3822403 -0.042602897 -0.31723535 -0.20372581 -0.13289073 -0.21848786 -0.2731388 -0.13042463
0.1767949 0.051515765 -0.079879664 -0.043554697 -0.13072985 -0.22119667 0.2040129 0.27040783
-0.35556656 -0.1473657 -0.29899037 -0.24375549 -0.16334401 -0.16630232 -0.10363525 -0.046544936
0.18393278 -0.12512468 -0.08218472 -0.31740335 -0.12676491 -0.21084338 -0.072884046 0.07105238
-0.35385886 -0.110917464 -0.25846392 0.059253614 0.08512858 -0.030855931 -0.04140242 -0.16519253
-0.20103303 -0.42542988 -0.4234731 -0.101801105 0.17597882 -0.22097605 -0.4216521 -0.3584221
-0.33307055 0.06791917 0.18227547 -0.2658295 -0.43192592 -0.23925655 -0.05379972 -0.5078851

network.2.weight f4 [128]
00000000: 9c4a 853f e5fb 6e3f 62cb 783f 6221 863f
00000010: 029c 5d3f b0a1 6c3f fc45 4b3f a9ec 5b3f
00000020: f12d 683f c440 5f3f 2e76 913f cde9 573f
00000030: 0a5a 9c3f 9d74 7d3f 28e8 643f ff81 6e3f
00000040: 4885 813f c28a 8c3f 99b0 843f a805 873f
00000050: 4b91 843f d288 813f c314 703f c034 6d3f
00000060: 8868 833f b08b 683f 9fd1 6d3f de13 6e3f
00000070: 93bd 7d3f 5bf8 583f 506c 563f 41a2 803f
00000080: 81ac 813f a643 503f b94f 833f e1b9 853f
00000090: 41d1 3b3f 5111 493f c0a1 633f beb9 503f
000000a0: 9953 9f3f 065f 8d3f 0647 793f c2cb 643f
000000b0: 45a1 453f 78e1 7c3f f4b5 763f 361d 663f
000000c0: 3bb2 803f 9b9c 753f dd15 963f 720c 833f
000000d0: a984 433f 9708 813f 9e87 693f 1aae 7b3f
000000e0: 0efc 843f eec3 973f 34af 6a3f eae6 853f
000000f0: 101a 503f 74a9 7c3f 5b24 873f e383 643f
00000100: de94 953f b660 933f fb64 733f 4f95 7c3f
00000110: e53d 723f f17a 8e3f 66b2 7e3f a366 863f
00000120: c69e 723f 7c22 723f d5ac 953f dd05 8a3f
00000130: ec9a 733f fecf 583f f885 793f d1ac 8e3f
00000140: 570a 6e3f 724f 783f 7678 893f 45f3 5c3f
00000150: 8e62 703f c498 8b3f 1343 803f 621d 6f3f
00000160: d194 8f3f e6b9 963f d906 943f 3a89 7a3f
00000170: dc71 633f ceb4 573f 38c8 853f 27cc 703f
00000180: 1716 7e3f cb0d 423f d754 703f bb17 853f
00000190: 637b 533f 230d 8a3f 438b 663f 5eac 813f
000001a0: 4481 753f 564c 703f 082b a83f 06c7 813f
000001b0: 2c34 853f bc13 663f 804c 6a3f 8cd9 6a3f
000001c0: 6521 763f b627 863f 0a57 873f 24b4 6d3f
000001d0: f181 793f 65f1 883f dd5c 603f d1d7 803f
000001e0: e3ba 863f 74d5 363f eadc 323f 1dea 893f
000001f0: 831a 843f c7b3 793f 8a55 8d3f 16eb 853f
1.0413394 0.9335311 0.9718534 1.0478938 0.86566174 0.92434216 0.7940366 0.8590799
0.906951 0.872082 1.136419 0.84341127 1.2214978 0.9900606 0.8941674 0.9316711
1.0118799 1.0979846 1.0366393 1.0548601 1.035684 1.0119879 0.9378168 0.92658615
1.0266275 0.90838146 0.9289798 0.92999065 0.9911739 0.8475396 0.8375902 1.0049516
1.0130769 0.81353223 1.0258704 1.0447351 0.7336617 0.7854205 0.88918686 0.8153342
1.2447387 1.1044624 0.97374 0.8937341 0.771992 0.9878154 0.9637139 0.8988832
1.0054392 0.95942086 1.1725422 1.0238173 0.763743 1.0080746 0.9122256 0.9831253
1.0389421 1.1856668 0.9167359 1.0461094 0.8128977 0.98696065 1.055797 0.89263743
1.1686056 1.1513889 0.9507596 0.98665327 0.94625694 1.1131269 0.99490964 1.0500072
0.9477352 0.9458387 1.1693369 1.0783039 0.9515827 0.8469237 0.97470045 1.1146489
0.9298453 0.96996224 1.0739887 0.863087 0.9390038 1.0905995 1.002047 0.9340421
1.121729 1.1775482 1.156459 0.9786564 0.8884561 0.8426026 1.0451727 0.9406151
0.99252456 0.75802296 0.93879455 1.0397867 0.8261015 1.0785259 0.90056247 1.0130727
0.9590037 0.9386648 1.3138132 1.0138862 1.0406547 0.8987386 0.9152298 0.917382
0.96144706 1.0480869 1.0573437 0.92853 0.974639 1.0698668 0.876417 1.0065862
1.0525783 0.71419454 0.6986834 1.0774571 1.0320591 0.97539943 1.104173 1.0462368

network.2.bias f4 [128]
00000000: 052d 3dbe dac2 70be 6a65 f53d 6e6b f0bd
00000010: 0071 5c3b 2d9d 683e 024e 3cbb dd20 803d
00000020: b63b 11be 0394 b23d ae5c 5c3e 8c20 fdbd
00000030: 9a41 023e 22bf 833d e7e3 df3d 4d62 193d
00000040: 5d0a 7cbe 7697 a43d f177 b63d 7e4b 853d
00000050: 0a36 2d3e 344b 593e 763e 29be 1fc1 6e3e
00000060: ac1d 633e 3ac2 f03d df15 a93e 42be 20be
00000070: 7cd4 963d b447 7a3e f399 c93c 8514 93bc
00000080: 64ff 713e b033 103e a084 883e ba30 903e
00000090: 6a3e 70be 6418 773e 7c3d 033e 22cf 1f3e
000000a0: 54fe 7e3e df62 c63e 3dfb af3e d70d 48be
000000b0: b47d 013e 78de 2cbd ebfa 27be a4d8 2fbe
000000c0: 6254 ae3d c438 563c 84e8 1a3e 290f f13d
000000d0: 9e0d 063e 8f78 703e 273f 673e dca7 ca3e
000000e0: d273 9c3e 61bc 913c 0b61 d13e 9126 a33d
000000f0: 56be 0b3e 08d4 bd3e fc54 e23d a364 90be
00000100: 316f 1ebe 4c7d 1a3e 4004 b2bc 0087 96bc
00000110: 0337 373e a341 e93d 8a5a 2b3e dca4 863e
00000120: 4519 323e c284 e53d 64b8 8d3e d9ba 343e
00000130: fab6 733e 6cb8 873e 96b2 b73d d135 28be
00000140: 9505 6e3d 7763 8ebd b444 c33e 892b 823d
00000150: 9085 6bbd 5d1d debd c0d5 223d 56ba 1e3e
00000160: 796b 42bc 57ac dc3e 5ec9 393e e959 eabb
00000170: 1276 e2bd 6e9b 51be 6650 613e 61bf 3e3d
00000180: 1047 853e 9182 8e3e f4b5 8e3e 8a8e 00bc
00000190: 1d3b 943e 304e 11be edc3 81bd 54d0 ecbc
000001a0: 2b19 20bd 2200 ea3d c804 513e d383 b43e
000001b0: 0fcf 733e 41ed 2bbd 8c12 ccbc 6b07 2ebd
000001c0: f5d2 7fbd 6f38 bf3c 4b65 213e 2d69 39bd
000001d0: 1d0b 853d e1b9 863e db7b 463e 8c9d 283e
000001e0: bb56 903d 94fa 47bc 9801 16be 5321 f33e
000001f0: d77f b73d 68de 42be 667a 5b3e 1137 37bd
-0.18474205 -0.2351183 0.11982234 -0.117392406 0.003363669 0.22716208 -0.002873302 0.06256268
-0.14182934 0.08719637 0.2151973 -0.123597234 0.12720338 0.0643294 0.10932141 0.037447263
-0.24613328 0.080367014 0.08909596 0.065085396 0.16915146 0.21220094 -0.16527733 0.23315857
0.22179288 0.11755796 0.330245 -0.15697578 0.07364747 0.24441415 0.024609542 -0.01795412
0.2363258 0.14082217 0.26663685 0.28162175 -0.23461309 0.24130398 0.12816423 0.15606359
0.24901706 0.38747308 0.34371367 -0.1953653 0.12645608 -0.04220435 -0.16404311 -0.17172486
0.085121885 0.013075057 0.1512776 0.1177047 0.13091132 0.2348349 0.22582684 0.39581192
0.30557114 0.017790021 0.4089435 0.0796634 0.13646826 0.3707583 0.11051366 -0.2820178
-0.15472104 0.1508686 -0.021730542 -0.01837492 0.17892079 0.11389472 0.16733757 0.26297653
0.17392452 0.11206962 0.2767974 0.17649402 0.23800269 0.2650789 0.089696094 -0.1642678
0.058110792 -0.06952565 0.38138354 0.0635596 -0.057500422 -0.10845444 0.03975463 0.15500769
-0.011866444 0.43100235 0.18143222 -0.0071518314 -0.110576764 -0.20469448 0.22003326 0.046569232
0.2603078 0.2783399 0.27873194 -0.007846484 0.2895135 -0.14189982 -0.06336198 -0.028907932
-0.039086502 0.114258066 0.2041198 0.35256824 0.23809455 -0.04197431 -0.024911188 -0.042487543
-0.062457044 0.02334234 0.15761296 -0.04526632 0.0649626 0.2631369 0.19383185 0.1646635
0.070477925 -0.012205739 -0.14649045 0.47486362 0.089599304 -0.19030154 0.2143341 -0.04473025

network.2.running_mean f4 [128]
00000000: fc2e 783e 47f1 423e 9c62 6e3e 4c5e 663e
00000010: ed55 013e 9825 7d3e 4d2b 733e a036 e73e
00000020: ddd3 973e 5587 413e ebc6 5b3e e099 be3e
00000030: 0d65 c63d f99b 4c3e b1c4 bd3e d3ab 6c3e
00000040: 1271 af3d 1074 5e3e d273 3f3e f9af 7e3e
00000050: dc6c 283e 1d55 313e fb1f cd3e 0d69 643e
00000060: 2c63 493e f81f 813e fc25 d63e 13f0 953e
00000070: 2bf6 8b3e aff4 d53e c617 ff3e 5009 a63e
00000080: f4dd 3b3e 1063 b43e 672b 743e 3f0b 7b3e
00000090: cb03 aa3e 2b3c 5e3e 0709 d63e 3373 443e
000000a0: 3116 143e b0f1 cc3e 9345 8f3e f6a5 603e
000000b0: c38b a73e 7774 503e 815b b83e 2f00 bf3e
000000c0: 17ca 583e 725f 8e3e eafa 383e 5268 c13d
000000d0: eaf9 9c3e 7e6a 4d3e 0b7c a53e 8502 d73d
000000e0: ecd9 ec3e d62d 863e e746 613e 74a9 c53e
000000f0: 1e14 8c3e ef07 b93e 5fbe 343e c117 a43e
00000100: 5d9e 433e e3d0 d53e f6f8 7a3e 054f f73d
00000110: 8b4f 973e 1d6e 703e e517 453e 9c7d a23d
00000120: 0af1 fb3d 7403 b13e 3ec9 603e 67ee 353e
00000130: 0326 6e3e 368d 943e 1c5c 313e ae78 813e
00000140: 6f72 f13e be53 d73e 498e a73e c8ba c93e
00000150: ba13 923e 9212 613e 730b d03e 7f39 f43e
00000160: 0a23 e53d 50c2 9c3e 5612 e03d 1861 ac3e
00000170: edef 913e 33fa 913e 79d6 8a3e 85b5 973e
00000180: 49d4 b23e 25a7 3d3e ab02 8f3e 3d7c 593e
00000190: be88 603e f787 703e d299 9c3e 0041 e13e
000001a0: 8fc5 503e 0a7a 843e d388 2c3e 7ccd b43e
000001b0: a2cb d03e a5b4 a43e 0733 a83e 9883 963e
000001c0: 7441 ad3e c0de f73d ef21 f03d 120e 9d3e
000001d0: 26fb b63e 9b97 653e ca08 1e3e 4d7f e93d
000001e0: e24d 363e 7b03 d93e 9991 eb3e 0f43 093e
000001f0: 73bd 1f3e 5c74 7d3e 4323 9a3e 2c69 243e
0.24236673 0.19037353 0.23279804 0.22496909 0.12630434 0.24721372 0.23746987 0.45158863
0.29653826 0.18899281 0.214626 0.37226772 0.09687243 0.19981374 0.37064126 0.2311242
0.08566488 0.21723962 0.18696526 0.24871816 0.16447777 0.17317624 0.40063462 0.22305699
0.19666737 0.25219703 0.41825855 0.29284725 0.2733625 0.4178824 0.49822825 0.3242898
0.18346387 0.3523183 0.23844682 0.24516009 0.3320602 0.2170264 0.41803762 0.1918457
0.1446159 0.40028143 0.27982768 0.21938309 0.32723817 0.20356928 0.36007312 0.37304828
0.21170841 0.27807194 0.18064466 0.09443726 0.3065942 0.20060155 0.323212 0.104985274
0.4626001 0.26206845 0.21999703 0.38605845 0.27359098 0.36138865 0.17650746 0.32049373
0.1910338 0.4176093 0.24509034 0.12075619 0.29552874 0.23479505 0.19247396 0.07934114
0.12301834 0.34572947 0.21951768 0.17766725 0.23256688 0.29013985 0.17320293 0.25287384
0.47157618 0.42056078 0.32725742 0.39400315 0.28530675 0.2197974 0.40633735 0.47700116
0.11188324 0.30617 0.10940997 0.33667827 0.2850336 0.285112 0.27116755 0.29630676
0.34927586 0.18520792 0.27931723 0.212388 0.21927163 0.23489366 0.30586106 0.43994904
0.20387863 0.25874358 0.1684907 0.35313022 0.4078036 0.3216907 0.3285143 0.29397273
0.33839 0.12103033 0.11725222 0.30674797 0.35738486 0.22421114 0.1543304 0.11401234
0.17803147 0.42385468 0.4600952 0.13404487 0.15599613 0.24751419 0.30105028 0.16055745

network.2.running_var f4 [128]
00000000: 6f45 113e 492b 1b3e 1532 183e a30b 293e
00000010: 895a 8a3d 322b 3a3e 4cd5 193e 9db1 af3e
00000020: 9dda 423e fbc2 133e 81ca 1b3e 0771 a63e
00000030: 270c 803d 4d1d 0f3e 1098 843e 26e6 f63d
00000040: b85d 493d 6345 2d3e 402e 183e cdd5 443e
00000050: 2d0f 333e 42f1 d13d 48b0 ae3e e9be 0b3e
00000060: bf0d 053e 14a6 713e 25ec 7e3e 8926 903e
00000070: e87a 5a3e 9b3e 8e3e 1f07 bc3e 0ba1 443e
00000080: f6a3 223e ad33 a03e 39e2 0a3e 99ba fe3d
00000090: d378 523e 7cbe 2a3e 9ebc 763e c32c e63d
000000a0: 3bbf ae3d 1bb9 943e 5d6b 2a3e 4de7 103e
000000b0: 8009 363e 0429 013e 1063 4d3e b55e 533e
000000c0: b5ee 323e 93a6 473e 4586 d43d 9d81 983d
000000d0: 6a8d 843e 384a 023e 2c6f 6a3e 83c8 873d
000000e0: ec33 ba3e 1028 353e 2768 1c3e 979b 4c3e
000000f0: 0e2f 493e 852b 833e 7cea 213e 2cfa 8b3e
00000100: 209e f83d 63d8 853e e8d0 3e3e b9bc 783d
00000110: 828b 473e 72fb ce3d 4597 133e f75e 563d
00000120: 2c30 8e3d 0ff6 8d3e 6939 353e ba91 e63d
00000130: cb36 123e ed6c 643e e964 e23d 4052 223e
00000140: 4b7c 7b3e ae16 a13e c7ff 8d3e 3226 893e
00000150: e3fe 7b3e 6103 233e 3e17 4c3e 9025 773e
00000160: 26f4 8a3d e4d3 623e f18f 823d 40c0 c53e
00000170: a467 253e b3fb 6f3e f78a 7b3e fc81 3f3e
00000180: 00e4 963e f5e6 b53d 97dd 2c3e 4929 b93d
00000190: 4718 1c3e b485 193e cfc2 733e fac2 bf3e
000001a0: 9ee6 483e 5bf4 423e 8fc4 cb3d 089d 5d3e
000001b0: 3a57 993e 10da 7b3e e224 463e 8c84 2b3e
000001c0: 53c9 933e 9214 983d 6c16 8e3d aa9d 783e
000001d0: 013f 3b3e 9632 2f3e c725 e53d 3f23 a23d
000001e0: 63a8 0a3e e7e2 ca3e 7e9e 9a3e 7f45 bc3d
000001f0: 1fef 973d df45 453e 0427 703e 4bc0 cf3d
0.14186643 0.1515323 0.14862855 0.16508345 0.067555495 0.1818054 0.15022773 0.34315196
0.19028707 0.14429848 0.15213968 0.32508108 0.06252318 0.13976021 0.25897264 0.12055616
0.049161643 0.16921 0.14861393 0.19222184 0.17486258 0.102510944 0.34118867 0.13647045
0.12993525 0.2359851 0.2489477 0.281544 0.21335948 0.2778214 0.36724183 0.19202058
0.15882859 0.31289425 0.1356286 0.124379344 0.20553903 0.16674227 0.24095389 0.11239006
0.08532568 0.29047474 0.16642518 0.14150734 0.17777061 0.12613302 0.2005732 0.20641597
0.17473872 0.19497137 0.103771724 0.07446597 0.2588914 0.12723625 0.22893971 0.066300415
0.36367738 0.17691064 0.15274106 0.19981228 0.19646856 0.2561914 0.15812105 0.27339303
0.12139535 0.26141652 0.18634379 0.060726855 0.19486812 0.10106553 0.14413173 0.05233666
0.06942782 0.2772679 0.17697681 0.11258264 0.14278714 0.22307177 0.11054403 0.15851688
0.24559133 0.31462616 0.27734205 0.26786953 0.2460895 0.15919258 0.19930741 0.24135423
0.06784849 0.22151142 0.06375111 0.38623238 0.16152817 0.2343586 0.2456473 0.18701929
0.29470825 0.08881942 0.16881405 0.09041078 0.15243636 0.1499241 0.23804782 0.37453443
0.19619223 0.19038527 0.099496 0.21641934 0.2994936 0.24594903 0.19350007 0.16749781
0.28864536 0.074257985 0.069378704 0.24278894 0.18285753 0.17109141 0.11188846 0.07916879
0.13540797 0.39626238 0.30199045 0.09192943 0.074186556 0.19264935 0.23452383 0.10144099

network.4.weight f4 [64, 128]
00000000: 0785 f1be 6546 2abd ccdc b33d 4e1c babd
00000010: c074 b73c 8489 8b3d 89d2 c33c ad20 00bd
00000020: 3f5d c4bd 2ee1 fd3d 0926 95bd ab15 813d
00000030: ef1d 26be cec1 edbc ef1f a33c b445 253d
00000040: cf0a c8bd 8a61 ba3d 1691 1d3e a9b7 103d
00000050: 00df 673e 224f 3f3d c83a 24be aa90 953c
00000060: 037d f9bd 7ff8 923d dfc3 193e 02bf 10be
00000070: f838 0ebe 9b28 cf3c 26fe 363e 96db bbbe
00000080: 6fb0 083e 6058 6cbd d372 383e 4daa 2f3e
00000090: 253e b73d f499 063e 06aa 303d b92e 8fbd
000000a0: 7248 253e 6431 70bc cc56 d53c 8047 cb3d
000000b0: 75e7 c33d 7bc0 793d 8b61 8dbd 4429 083d
000000c0: 8f4c adbd 52f5 80be a727 4a3d e048 1e3e
000000d0: 043d 343e cafe b63d f28b 053d 93f5 d03d
000000e0: 5905 233e 4ac5 8f3d 312d 933d 0305 64bd
000000f0: 2ca5 9e3d 3335 acbd 6f47 853e 0356 66be
00000100: 718b e5be 8d77 85be c1ef 27be 37fd bdbd
00000110: 1be7 4abd 4be4 c93d 94c4 59bd 60bd 743d
00000120: ffa0 d23b 1413 193e 518a c2be 6142 ad3d
00000130: 3464 11bd bedb 223d 4087 11be 92c0 8b3e
00000140: ecf7 b2bd 0fe3 fbbd ca07 15be 8598 94bc
00000150: e014 69be 40c6 2c3e b421 8bbc f8e6 5abc
00000160: 9056 753c 9cfc da3b 5578 06be 8be3 63be
00000170: 9661 4dbd cf55 50be 0d1a 33bd bdda 2abe
00000180: 6902 d0bd 32ad cb3d 1531 173e 67e8 4b3e
00000190: 35be d9bd a9dc 6cbe 28ff e8bd d02a 93bc
000001a0: 713a 3fbd 8694 c1bd 2ac9 143e 10d8 77bb
000001b0: 707a 433e cbc3 59bb 3da2 95bd ce3e fe3d
000001c0: 604c a5bd 5bee fb3d d827 48be 8133 103e
000001d0: 24a9 55bd f2f2 383e 9124 d5bb 95ce a8bd
000001e0: 0f88 1fbe 8ec7 c8bd b9f3 8abb 9dbd c83d
000001f0: 6d1b 98be 62df 4ebd a34e 4fbe 3ae1 37bd
00000200: 1f97 99bc 5786 e13d be13 8dbc 4570 15bd
00000210: f924 ca3b 1680 edbc 993a 923d e6ac 2f3e
00000220: 4f13 99bc 422b 04be 5a12 7d3d f591 9dbc
00000230: b706 39bd 9ac5 a9bd 52da 2bbe e541 573d
00000240: 8999 7fbb 36aa 51bc 5c2f b1bd b3d6 d1bd
00000250: eeec d83c 8de4 87be 87c7 113e 80d0 ab3c
00000260: c253 3d3e f10e dabd ceb8 a9bc d2c3 6cbd
00000270: 1f23 b6bd 86ad 223d 7822 4fbc d9a1 833b
00000280: ca94 aebc 53df d73d cb10 1e3d 3948 9fbe
00000290: f54b f2bc 5da9 f53d 7e66 b73d 6e39 2fbe
000002a0: aaf4 f23c 927c f33d 505a 85be 25d3 09be
000002b0: ed0f 66bd 4616 273e 136b 4fbe fcc4 b83d
000002c0: 663d 55bd 21cd 7b3d 5d87 ae3d db40 bcbc
000002d0: 2133 41bd 038e b7be 2ff3 ff3d 2f2c f13d
000002e0: e66b 95be 499d f13d 3f2e c6bd a72b e0bd
000002f0: 3620 163d 9617 b63d 2545 c6bd 4396 063e
00000300: 1998 a8bd 1c73 0b3e 948e 703e afb9 0f3e
00000310: 16e7 40be 1e0a b0be 5e84 883e 26bd 3fbe
00000320: 8374 5dbe 4638 26be c89c dfbc 7b62 8ebe
00000330: 3e1f 5dbe 31e7 80be 1055 163e 4a66 37bd
00000340: b9dd 0d3b 7947 6e3e 6bdb 653d 1acd 0fbe
00000350: 77e1 473e fb1a 923d 15a9 9dbd 56bb 5abe
00000360: 4dd5 163e 626e 80bd bb3c 09be 97e4 12be
00000370: 7a59 033e 0af0 7a3e 0f29 353c c99c a6be
00000380: 26d5 13bd b622 60be 5309 41be 0a1b 71be
00000390: 68a9 f03c d983 833e bd91 523e cee8 f43d
000003a0: 9f75 243e 1ca4 053e 45b8 e0bd c882 3b3e
000003b0: cf8e 48be 6962 b03d e414 033e 50c3 03be
000003c0: a5d1 323d 566b 433d eb2a 01bd 308f 21be
000003d0: 3523 a8be c7f7 b2be 186c 723e 2e45 d23d
000003e0: 8ef7 77bd f52b dc3d f0cd 04bd 1305 323d
000003f0: c89b beb9 25e8 dd3d fd85 433d f26a 903d
-0.47171804 -0.04157104 0.08782348 -0.0908743 0.022394538 0.068133384 0.023904102 -0.031281162
-0.09588098 0.12396465 -0.07282645 0.06302961 -0.16222356 -0.029023077 0.019912688 0.040349677
-0.097676866 0.09100635 0.15387377 0.035331402 0.22643661 0.046706326 -0.16038048 0.018257458
-0.12182047 0.07176303 0.15016125 -0.14135364 -0.1388892 0.025287917 0.17870387 -0.36690968
0.13348554 -0.05770147 0.18012552 0.17154808 0.089474 0.13144666 0.043130897 -0.069913335
0.16140917 -0.014660213 0.026042365 0.09925747 0.09565631 0.06097458 -0.069033705 0.03324248
-0.08461868 -0.25187165 0.04935422 0.15457487 0.176014 0.08935316 0.032604165 0.102030896
0.15920009 0.07020052 0.07186354 -0.055668842 0.07746348 -0.084085844 0.26031062 -0.22493748
-0.44832948 -0.26067773 -0.16400053 -0.092768125 -0.049536806 0.098579966 -0.053165987 0.059750915
0.0064278836 0.14948684 -0.37996152 0.084599264 -0.03549595 0.039760344 -0.1421175 0.27295357
-0.087386936 -0.12299167 -0.14553753 -0.018139133 -0.2276187 0.16872501 -0.016983844 -0.013360731
0.014974251 0.0066829454 -0.1313184 -0.2225477 -0.050141893 -0.20345233 -0.043726016 -0.16685005
-0.1015671 0.09945144 0.14764817 0.19912873 -0.10631982 -0.2313105 -0.11376792 -0.01796475
-0.046686593 -0.09452157 0.14529863 -0.0037817992 0.19089675 -0.0033228274 -0.07306335 0.12414323
-0.08071208 0.12301322 -0.19546449 0.14082147 -0.05216326 0.18061426 -0.006504603 -0.082425274
-0.15579246 -0.09803687 -0.00424048 0.09801791 -0.29708424 -0.050506003 -0.20244841 -0.044892527
-0.018748818 0.110119514 -0.017221328 -0.03648402 0.0061689583 -0.02899174 0.07140083 0.171558
-0.018685965 -0.12907127 0.06178508 -0.019234637 -0.04517242 -0.08289643 -0.16782501 0.052553076
-0.0039001426 -0.012796929 -0.08651611 -0.10246029 0.026480164 -0.26541558 0.1423627 0.020973444
0.18488982 -0.10647381 -0.020718005 -0.057803936 -0.088934176 0.039716266 -0.012642495 0.0040170965
-0.021311183 0.105406426 0.038590234 -0.3110979 -0.029577235 0.11995194 0.08955096 -0.17111751
0.02965768 0.11888994 -0.26045465 -0.13459451 -0.05616753 0.1631709 -0.2025569 0.09021947
-0.052060507 0.061474923 0.08521912 -0.022980144 -0.0471679 -0.35850534 0.124975555 0.117760055
-0.29183882 0.11797578 -0.096767895 -0.10945826 0.036651812 0.088912174 -0.09681157 0.13143258
-0.08232135 0.1361813 0.23491889 0.14035676 -0.18838152 -0.3438272 0.26663488 -0.18724498
-0.21626477 -0.16232404 -0.027296439 -0.2780951 -0.21593949 -0.25176385 0.14680886 -0.044775285
0.002164705 0.23269452 0.056117456 -0.14043084 0.19519602 0.07134052 -0.076982655 -0.21360525
0.14729805 -0.06271054 -0.13402073 -0.14345013 0.12827101 0.2450563 0.011057152 -0.32541493
-0.036091946 -0.21888241 -0.18851213 -0.23545471 0.029377654 0.2568653 0.20563407 0.119584665
0.16060494 0.13050884 -0.109726466 0.18311608 -0.19585727 0.0861252 0.12800938 -0.12867475
0.043656964 0.047709785 -0.03153507 -0.15777278 -0.3283936 -0.34954664 0.23674047 0.10267101
-0.06053882 0.10750572 -0.03242296 0.04346187 -0.0003635569 0.10835294 0.047735203 0.07051648

network.4.bias f4 [64]
00000000: 82bc f73e 22da 453d f9a2 bebe 169d e1be
00000010: 572f 9f3e f76e 32be 1057 96bd 83c3 473d
00000020: 6ea4 afbd 1df2 283f b6b3 61bd 7b68 2ebd
00000030: 4f10 0b3f c7e5 85be f629 7ebe 26c4 82be
00000040: 328a ea3b b4bf 34be a24b 403c 9314 893e
00000050: 24be edbe 3d16 57bd e3d7 7ebe 9e2e 60bd
00000060: 1f02 79be 8671 fcbd 13ae 6ebe 1a08 d63c
00000070: 8ab6 9ebc 14cf 9bbe cca6 50be 7f10 943e
00000080: 1836 81be 5bd6 093d 82fa cbbe 83c3 57be
00000090: 1f7a 7d3e 8dca 6cbe dd8d 563e bf2c 303d
000000a0: 87da af3b ac42 863c f8e8 b2be 164e c8be
000000b0: 0b25 2fbe c38e 5c3d ad16 9b3e c257 a2bd
000000c0: 872e 15be 5134 323e 4363 86bd e904 59be
000000d0: 4b15 f63d bda0 3ebe 9933 55be f7d4 cc3b
000000e0: 431b c0be e3d0 e43e 5213 28bd 2c76 773e
000000f0: 024f 11be 2dd6 ac3d 896f ce3e dea3 05be
0.48386008 0.04830373 -0.37233713 -0.4406516 0.31090805 -0.17425142 -0.073408246 0.04877044
-0.08576284 0.65994436 -0.055103026 -0.04258011 0.5432176 -0.2615187 -0.24820694 -0.25540274
0.0071575874 -0.17651254 0.011736782 0.2677351 -0.46434128 -0.052511442 -0.24887042 -0.054731958
-0.24317215 -0.123263404 -0.23308592 0.02612691 -0.01937415 -0.30431426 -0.20376128 0.28918836
-0.25236583 0.03365169 -0.3983956 -0.21070676 0.24753617 -0.23124142 0.20952554 0.043011423
0.0053666267 0.016389214 -0.34943366 -0.39122075 -0.17103975 0.053847086 0.30290738 -0.07926895
-0.1456853 0.1740277 -0.065619014 -0.2119328 0.1201578 -0.18616004 -0.20820464 0.0062509733
-0.375208 0.44690618 -0.04103405 0.24166173 -0.14190295 0.08439288 0.4031947 -0.13050792

network.6.weight f4 [64]
00000000: aa57 873f 85d5 6c3f 1dab 543f 14ab 693f
00000010: ccbe 883f 51e4 6e3f 89b8 8a3f 94cf 3d3f
00000020: 2c68 4c3f 2ae6 753f da0a 5d3f 97c2 433f
00000030: 0da2 7d3f 9360 173f bdcd 4a3f c889 2e3f
00000040: 8e4e 3c3f 92be 643f 356a 593f 92f7 9c3f
00000050: e70a 283f 1611 4b3f c1f9 483f 6c94 5c3f
00000060: 56bd 553f 0d33 633f 0aa7 483f 7f5a 6e3f
00000070: 2e7e 753f 468a 503f 01fc 433f 168a 883f
00000080: c91f 493f 66e3 573f 65b1 393f 8fbf 373f
00000090: a82d 7c3f b629 623f bf95 613f ad0f 783f
000000a0: 152e 823f f02e 753f 0df8 283f 6476 453f
000000b0: 3e4d 463f 2c52 893f f9c2 8a3f 13ce 623f
000000c0: 302e 763f 0c44 853f 639d 553f de1d 593f
000000d0: 43ea 833f fd90 343f 13a7 7a3f 846e 803f
000000e0: e1ee 653f 7efe 7e3f 402b 733f 777f 693f
000000f0: d2c4 513f 218e 7f3f 2611 883f c538 613f
1.0573628 0.92513305 0.830736 0.9127667 1.0683227 0.93317133 1.0837566 0.74144864
0.79846454 0.9605433 0.86344683 0.76468796 0.99075395 0.59131736 0.7922018 0.6817899
0.73557365 0.8935329 0.84927684 1.2263052 0.65641636 0.79322946 0.78506094 0.86163974
0.8349203 0.8874977 0.7837988 0.93106836 0.9589566 0.8146099 0.765564 1.066714
0.78564125 0.8433136 0.7253631 0.7177667 0.98507166 0.88344896 0.8811912 0.9689892
1.0170313 0.95774746 0.66003495 0.77133775 0.7746161 1.0728202 1.0840751 0.88595694
0.96164227 1.0411391 0.8344328 0.848112 1.0305866 0.70533735 0.97911185 1.0033727
0.89817625 0.99607074 0.9498787 0.9121012 0.8194095 0.99826247 1.0630233 0.8797725

network.6.bias f4 [64]
00000000: 2993 893d 3360 acbe ea0b f3be 6ca2 f2be
00000010: efe1 a13d 09ff abbe ed06 21be f8f4 1cbf
00000020: fb10 e4be a468 c53e 7cef 02bf 2c40 0cbf
00000030: b5a0 713e 5827 4d3f 94c8 d1be 4409 07bf
00000040: 4a4a 0abf 07b8 f6be 3404 01bf e783 dabb
00000050: abbe 0cbf 1ff9 fcbe 288d 0bbf 6e97 e0be
00000060: 2ec1 e3be 17cd ddbe 1d54 08bf 2dde 93be
00000070: 3661 85be fa42 eebe a813 1ebf 0269 81bd
00000080: a6e6 28bf 5d7b b7be b304 36bf d473 1abf
00000090: b534 853c 482e bdbe 58d8 cebe 64c6 68be
000000a0: 8c11 1d3f 83e3 43be cebd 0fbf a1d0 fabe
000000b0: 63a9 fabe 0460 82be b54d a0bd 6dcc debe
000000c0: bd12 c0be 01b1 c8bd 63a6 08bf fee0 07bf
000000d0: 7a17 41be 5b3f e7be d582 bbbe 9832 a2be
000000e0: 712a f6be 39ce 9bbd b9f0 8bbe 8637 17be
000000f0: dbad d1be b8c3 39be 2148 7cbd 5af1 bfbe
0.06717522 -0.33667144 -0.47470027 -0.47389543 0.079044215 -0.33593014 -0.15725298 -0.6131129
-0.44544205 0.38556397 -0.51146674 -0.5478542 0.23596461 0.8013816 -0.4097334 -0.52748513
-0.54019606 -0.48187277 -0.5039704 -0.006668556 -0.54978436 -0.49408814 -0.5451226 -0.43865532
-0.44483322 -0.43320534 -0.53253347 -0.28880444 -0.2605073 -0.46535474 -0.61748743 -0.06318857
-0.6597694 -0.35836306 -0.7110092 -0.6033299 0.016260484 -0.36949372 -0.40399432 -0.2273193
0.613549 -0.19129758 -0.56148994 -0.48987296 -0.48957357 -0.2546388 -0.078273214 -0.4351534
-0.37514296 -0.09799386 -0.53378886 -0.53077686 -0.18856612 -0.45165524 -0.36623254 -0.31679225
-0.48079255 -0.07607693 -0.27332094 -0.14767274 -0.40952954 -0.18141067 -0.061592225 -0.37488824

network.6.running_mean f4 [64]
00000000: c8b5 0d40 86de 813f 482f 113f 5548 073f
00000010: d9f1 f73f ed43 323f 1501 873f bd54 1d3f
00000020: e266 8a3f b130 0a40 a457 423f e306 923f
00000030: 2397 0a40 298b 603f ec26 333f d95c 683f
00000040: f03d ff3e 16a9 353f 1aa6 833f 07ab 943f
00000050: 7762 f83e 0ce5 093f 002e 313f 6bf6 f23e
00000060: 99f0 d63e 29d8 fb3e ad6e 073f 6f65 a73f
00000070: e422 403f caf8 753f 6fd6 623f f998 ab3f
00000080: 9db2 603f 6a0a 433f 0e1e 243f 83ee 2d3f
00000090: 8d6c d13f b4c1 313f 3d23 883f 5431 a43f
000000a0: 4590 bd3f e1c9 533f c5e2 1d3f 34e3 dd3e
000000b0: 2dc2 303f 4e20 b33f 3636 913f 6133 833f
000000c0: d321 e33e 9a9a ae3f 4f3e 643f 8bd4 043f
000000d0: b0ef 9b3f a580 0d3f 3e3e 473f 68ba 733f
000000e0: 48e8 5c3f a84d e13f 708e 923f 62a1 c83f
000000f0: 3175 943f ed72 bf3f 24dd d03f 46ff ca3e
2.21422 1.0146034 0.5671277 0.52844745 1.9370681 0.69634897 1.0547205 0.61457425
1.0812647 2.159222 0.7591498 1.1408352 2.1654747 0.8771234 0.69981265 0.90766674
0.49851942 0.7096113 1.0285065 1.1614693 0.48512623 0.5386512 0.69210815 0.47453627
0.41980436 0.49188355 0.5290325 1.307783 0.7505324 0.96082747 0.8860845 1.3406059
0.8777254 0.76187766 0.6410836 0.67942065 1.6361252 0.6943619 1.0635754 1.2827554
1.4809653 0.8272992 0.6167415 0.43337405 0.6904629 1.3994234 1.1344669 1.0250055
0.44361743 1.3640931 0.89157575 0.51886815 1.2182522 0.5527442 0.7782935 0.9520631
0.86291933 1.7601824 1.1449718 1.567425 1.1598264 1.4956948 1.6317487 0.39647883

network.6.running_var f4 [64]
00000000: 5b42 9840 c7bd 6140 476b dc3f 629d bb3f
00000010: 0219 9240 d4d9 e43f 7608 2a40 8d99 923f
00000020: 1a3f 8f40 7f03 6d40 cf42 ec3f 324f 7540
00000030: ce3a 8d40 4dee d33f cc2b f93f 51d4 4040
00000040: 20ff 853f 488b f13f c23e 7740 5859 0840
00000050: 7732 8e3f 8f1b 9f3f 75f2 ce3f ceb0 6a3f
00000060: 5151 5a3f 39ef 873f 2dd2 b33f c37d 8040
00000070: ddf9 fa3f 46a3 2e40 a21e f63f 6679 4240
00000080: 78a1 2640 35d4 0040 2d93 d93f f7fd bb3f
00000090: c924 8040 f774 fd3f 231a 1540 5884 7640
000000a0: e7d5 2940 ab60 0640 004e 1640 f50a 623f
000000b0: e0ee e73f e13e 8440 91fe 2d40 faef 4a40
000000c0: 324f 7e3f 7f5a 4a40 d254 1640 25b0 d03f
000000d0: 21bd 5240 0a0e d43f c007 fb3f 39c8 0440
000000e0: b2b2 3640 b2d5 a040 63f8 5040 42b2 a140
000000f0: 5bcc 8640 fb75 9d40 d6c6 6040 0c6e 7f3f
4.7581 3.527208 1.7220238 1.4657404 4.5655527 1.7878976 2.6567664 1.145311
4.476453 3.7033384 1.8457888 3.8329587 4.4134283 1.6557099 1.9466491 3.0129588
1.0468483 1.887063 3.8632054 2.130453 1.1109151 1.2430285 1.6167742 0.9167603
0.8528033 1.061988 1.4048516 4.015352 1.9607502 2.7287154 1.9228098 3.0386596
2.6036053 2.012952 1.699804 1.4686879 4.0044904 1.980132 2.3297203 3.8518276
2.6536806 2.0996501 2.3485107 0.8829797 1.8119774 4.1326756 2.7186625 3.170897
0.9933959 3.1617734 2.348927 1.6303755 3.2927935 1.6566784 1.961174 2.0747206
2.8546567 5.026086 3.2651603 5.05301 4.2124457 4.920652 3.512136 0.99777293

network.8.weight f4 [32, 64]
00000000: f631 0c3d c45b 4f3b c12f 31be 7ebc 66be
00000010: eba6 9b3d 756f 68be 878e 0a3e adbf 11be
00000020: 0eb2 2abc abf7 39be b6cc 2a3e 4d38 72be
00000030: 29f5 1dbe f4f0 463e 7343 4b3e 809e 55be
00000040: 7166 013e d5d8 833d 6942 73be b736 9b3d
00000050: 4f56 ebbd 3086 4cbe 7c94 6fbe ff27 253e
00000060: 4431 16be 05d5 7ebe 178e 14be 893b b83d
00000070: 24b2 09bd 6697 2bbe bf3b 67be 5c0a 5bbe
00000080: 0422 30be 2aa6 993c 04ae 0dbe 040b b5bd
00000090: 942c 00be 55a2 8fbe 48de 0bbe ac7d 0cbe
000000a0: c574 723e 4149 c23c 5821 88bd 97f9 a33d
000000b0: 5227 843c 46ca fb3d c1ce 42be a100 f5bd
000000c0: 5543 8ebd e497 f4bd 6b75 183e 8069 53bd
000000d0: 9eda abbe 118b 403e 992c 1c3e 45bf 72be
000000e0: 4aa0 71be f48b 24be 9ab0 b63d cb28 9cbd
000000f0: 8c73 61be 450a 3abe 2e7e e3bd 8a14 603d
00000100: d58c 8cbd 8362 c33d e68f 7d3d bca7 78bd
00000110: b7bc 58bd 91e3 8c3d 53a3 763c 0f86 4bbe
00000120: 5ecb 57bc ee30 6e3d 1eeb 103e dc41 a43d
00000130: b4e2 163e aa0a 2f3d 4095 673e 8535 5bbe
00000140: 8174 85bd 26e3 22be f86f 2fbe 25df 8c3e
00000150: 9af9 44bd 9778 d63d 4f34 3dbe 5912 96bd
00000160: bcc8 8ebe ee44 bbbd d4e3 8cbe 3d51 8b3d
00000170: c55d 49bd c5aa e23c 8b85 bebd dc83 d23c
00000180: 8eec 273e 4041 073e ad8a 53be f0c5 953d
00000190: df67 243c 0160 0dbe fefc 05bc 5996 73be
000001a0: d449 0e3e a97b 94bd b8a0 723d 89f0 80bd
000001b0: 97a0 23be b8f3 10be ef6e 2cbe 6f3e 3abe
000001c0: 9a18 b63c 503f aabd 9eeb 2fbd 11c2 b7bd
000001d0: 824e 39bd 7d34 62bc c935 b43d 795a 6dbe
000001e0: ef3c 3abe e642 963d 325a 723c 6864 90bd
000001f0: a9c8 20be 5be3 eb3d 00e3 213c 9a83 383e
00000200: 2e3c 753e 35a0 08be 7100 fbbd f451 89bc
00000210: 3607 fa3e dc78 0ebe 2be3 fabd 0d97 16be
00000220: bbbd eebd 2c68 74bd 1172 84be d47c 463e
00000230: 5608 223e 7bbc 463e 1729 e7bd d15a 1b3c
00000240: 251d aabe 967e ddbb befc c7bc 9278 73bd
00000250: d21d 6abe d8df 3fbe dbc1 133d 03ac 5dbe
00000260: f609 f539 5233 fd3e 0187 333e 8022 2fbd
00000270: 7316 de3c 6d7f d43d 52de bc3e 6432 a53c
00000280: ae98 883e dc0f dfbc e011 4e3e 978e cbbc
00000290: f194 c73d 4efc 9d3e fc5a 07be cd18 223e
000002a0: cff2 ec3d 961c 9bbd 3e56 333d 3af0 03be
000002b0: b9fd 22bd ede8 6dbd 4c3a 2b3e 3b02 35be
000002c0: 7cde 51be d91a 8c3e 09c8 53be 1f9a 73be
000002d0: 1da0 883e 3475 4ebe cac9 073d a714 98bb
000002e0: e3da 573e 1e28 853e b3f6 20bd 5599 933e
000002f0: 7133 723e 0328 163d a355 4a3c e250 1fbe
00000300: 105d 2ebc d76e 22be 5886 73be 78c2 3d3e
00000310: 14c4 3f3e 95f2 f63c 15ef cfbd e213 9a3d
00000320: 537c 29be 687d 7c3e d1bf 31be e815 edbd
00000330: 2edb 083d 5295 203e b10a 66be 0365 563e
00000340: fa49 30bb b077 4ebe e928 493e 98d7 46bd
00000350: 6181 94bc 5dab a9bd bfa3 ff3d 3322 06bd
00000360: 01fc 933d 81d1 9d3d 1d90 43bd 9d4c 0cbe
00000370: 943d 583e 9d7a 35be a0ee eebd 87bb 593e
00000380: 1652 2cbe 3f3b f5bd 8c61 d43d 795c 36be
00000390: 1eae 133e 3cf0 93bb cbce 91bd 5f2b 8d3d
000003a0: 8374 733e 0b65 f13d ff6c 55be 9b0e 12be
000003b0: a6e7 f6bc 8909 05be eb24 123e db3d 2dbd
000003c0: 23c8 d93d daea 7f3c 619e e1bd f8db 92be
000003d0: b69e 22bd d313 6ebe d9b7 bcbe 7726 31bd
000003e0: 79e5 25be 4f12 ea3d 0a5e 49bd 8841 fe3d
000003f0: 0c44 08bc 7be3 793d 4ce4 bb3d 7c39 5abe
0.034227334 0.003164039 -0.17303373 -0.22532842 0.076001965 -0.22698767 0.13530932 -0.14233275
-0.010418428 -0.18160884 0.16679654 -0.2365429 -0.15425552 0.19427854 0.19849949 -0.20861244
0.12636735 0.06437842 -0.23755802 0.075787954 -0.114910714 -0.19973063 -0.23396486 0.16128539
-0.14667231 -0.24885948 -0.14507328 0.089957304 -0.033617154 -0.16756973 -0.22581385 -0.2139067
-0.17200476 0.018755991 -0.13835913 -0.08839992 -0.12517005 -0.28053537 -0.13659012 -0.13719815
0.23677357 0.02371657 -0.06646985 0.0800659 0.01613203 0.1229444 -0.19024183 -0.119630106
-0.06946436 -0.11943033 0.14888541 -0.051614285 -0.3356523 0.1880305 0.15251388 -0.23705776
-0.23596302 -0.16069013 0.08920403 -0.07624968 -0.22016734 -0.1816798 -0.11108051 0.054707088
-0.06862799 0.09540274 0.06190481 -0.06070684 -0.052914347 0.06879342 0.015053588 -0.19875358
-0.013171045 0.05815213 0.1415219 0.08020374 0.14734918 0.04273478 0.22615528 -0.21407135
-0.06516362 -0.15906963 -0.17132556 0.27513996 -0.0480896 0.104722194 -0.18476985 -0.07327718
-0.27887523 -0.09144007 -0.2751757 0.06802604 -0.04916169 0.02766932 -0.09302815 0.025697641
0.16398832 0.13208485 -0.2065837 0.07313144 0.01003453 -0.13806154 -0.008177994 -0.23787822
0.1389535 -0.07250149 0.059235305 -0.062958784 -0.15979229 -0.14155471 -0.16839193 -0.18187879
0.022228528 -0.08312857 -0.04294931 -0.08972562 -0.045240887 -0.0138064595 0.08799321 -0.23179044
-0.18187307 0.073369786 0.014792012 -0.07050401 -0.15701546 0.11517974 0.009880781 0.18018952
0.23948738 -0.13342364 -0.122559436 -0.016762711 0.48833627 -0.13913292 -0.1225036 -0.14706059
-0.11657282 -0.05966966 -0.25868276 0.19383556 0.15823492 0.19407837 -0.11287134 0.009482102
-0.3322536 -0.006759475 -0.024412509 -0.059441157 -0.22862938 -0.18737733 0.036073547 -0.21647649
0.00046737463 0.49453217 0.17531969 -0.04275751 0.027110314 0.10375867 0.36888367 0.02016563
0.26678985 -0.027229242 0.20124006 -0.024848266 0.09745205 0.30856556 -0.13218302 0.15829773
0.115697496 -0.07573812 0.04378342 -0.12884608 -0.03979275 -0.058083463 0.16721457 -0.17676632
-0.20495027 0.27364233 -0.20681776 -0.23789261 0.26684657 -0.20161897 0.033151425 -0.004641134
0.21079592 0.2600717 -0.03929777 0.2882792 0.23652436 0.036659252 0.012349519 -0.15558198
-0.010642305 -0.15862595 -0.23781717 0.18531215 0.18727142 0.030144969 -0.10153023 0.075233236
-0.16551332 0.24657214 -0.17358328 -0.11576444 0.03341215 0.15681961 -0.22465016 0.2093697
-0.0026899562 -0.20162845 0.19644512 -0.04854545 -0.018128099 -0.08284638 0.12482404 -0.03274746
0.072258 0.07705975 -0.04774486 -0.137011 0.2111724 -0.17722555 -0.11666608 0.21262942
-0.16828188 -0.11974191 0.10370168 -0.17808713 0.14421889 -0.004514722 -0.07119521 0.06893038
0.23774914 0.117868505 -0.2084236 -0.14263384 -0.030139755 -0.12991919 0.14271896 -0.042295318
0.10633876 0.015619958 -0.110165365 -0.28683448 -0.03970214 -0.2324975 -0.36859015 -0.043249574
-0.16200818 0.11429273 -0.04916195 0.12414843 -0.008317005 0.061007958 0.091744035 -0.21310991

network.8.bias f4 [32]
00000000: 5c62 e43f 0ee6 e13f 471c b5be 8fdd cf3f
00000010: 9664 e63f 8560 f23f a5b7 d73f e83c a63f
00000020: f172 b53f 9117 ce3f 48c1 b63f 31c8 0040
00000030: 57d7 cd3f 9593 a83f c4d2 bd3f d19f f73f
00000040: f48e 9a3f 7a9f ad3f 4c9f b03f 36bc b73f
00000050: 9c5b 493e 710e a23f 93ba f13f eddd c33f
00000060: 729c ec3f 51da abbe d55f 0040 acf4 f33f
00000070: ceb9 903f f2ee e23f dfe9 a63f 2a1d 0740
1.7842517 1.7648332 -0.35373136 1.6239489 1.7999446 1.8935705 1.6852919 1.2987337
1.4175702 1.6100942 1.4277735 2.0122187 1.6081342 1.3170038 1.4829946 1.9345647
1.2074876 1.3564293 1.3798614 1.4354312 0.19663852 1.2660657 1.8885063 1.5302101
1.8485243 -0.33565 2.0058491 1.9059043 1.1306703 1.772917 1.3040122 2.111155

network.10.weight f4 [2, 32]
00000000: 236e d33e 247f d63e 8486 e33d 51e1 d03e
00000010: cfa1 df3e 8b09 c43e 1f13 b93e 8328 c03e
00000020: 3e59 f13e 78c3 043f 11c9 953d d167 da3e
00000030: ea76 6a3e b97d f83e 7715 de3e e8fb b53e
00000040: 2c8e dd3e 8032 c23e 976b bd3d 3157 dd3e
00000050: d127 3abe 51fa d13e 2e32 bb3e 46ad 863e
00000060: f7eb 733e e86a a7be 0b4c 993e 422b cc3e
00000070: 736d c03e 9fbb 893e 5eed a53d 343f e33e
00000080: 4d9b d93e 5a40 b83e 3af4 b0be fd17 b53e
00000090: ec4e b63e 05d7 843e 9b76 3c3e 82ca be3c
000000a0: de23 893d 7cce e83e 1bb1 e53e d9dd c73e
000000b0: 741c ce3e baf1 013f 1db3 803e fcd6 813e
000000c0: 0589 9e3c 78e2 313d a429 b23e a662 383e
000000d0: 2c4f 733e 77bb a83e e9ef c73e 6f04 aa3e
000000e0: 7ff6 b73e a82a 083e f1f1 013f a9a4 923e
000000f0: e9f8 f83d cc5d e43e 147f cf3e 39a3 d43e
0.41294965 0.41893876 0.11109641 0.40796903 0.43678138 0.3828853 0.361474 0.37530908
0.471384 0.5186076 0.07313741 0.4265733 0.22896925 0.4853342 0.4337575 0.35543752
0.4327253 0.37929153 0.09249037 0.43230584 -0.18179251 0.4101129 0.36561722 0.26304072
0.23820482 -0.3269875 0.2994083 0.39876753 0.37583503 0.26900956 0.08101915 0.44384158
0.42501298 0.35986596 -0.3456133 0.35369864 0.35607088 0.25945297 0.1840462 0.023289923
0.06696294 0.45470035 0.44861683 0.39036444 0.40256083 0.5075947 0.25136653 0.25359333
0.019352445 0.043428868 0.34797394 0.18006381 0.2376067 0.32955524 0.39050224 0.33206508
0.3593025 0.13297522 0.507598 0.2864125 0.12156851 0.4460281 0.4052664 0.4153078

network.10.bias f4 [2]
00000000: b32b ae3f ea73 a63f
1.3607086 1.3004124
